models/best_predictor.pt (torch, 395366 bytes, 26 tensors)

input_norm.weight f4 [768]
0	0x3fba9df2	1.4579451
1	0x3fa4ee2a	1.2885182
2	0x3f62f4dd	0.8865488
3	0x3f2e3578	0.68050337
4	0x3f3b6d1e	0.73213375
5	0x3eea5887	0.45770666
6	0x3efee0d7	0.49780914
7	0x3f56dc11	0.83929545
8	0x3f5754d5	0.8411382
9	0x3f2e3588	0.6805043
10	0x3f5ef2c4	0.8708918
11	0x3fa2fd82	1.2733614
12	0x3f11cae4	0.5695021
13	0x3ee9a09c	0.45630348
14	0x3f7b4127	0.9814629
15	0x3f8f5d6a	1.1200383
16	0x3f5166d9	0.8179756
17	0x3f94cd6f	1.1625193
18	0x3f9e1499	1.2350036
19	0x3f3586dd	0.7090891
20	0x3f978b9a	1.1839478
21	0x3f813891	1.0095388
22	0x3f2e6cf1	0.6813498
23	0x3f8bede4	1.0931973
24	0x3f9300a8	1.1484575
25	0x3f6f2485	0.934151
26	0x3f9991ee	1.1997659
27	0x3f63b00a	0.8894049
28	0x3fb34366	1.4004943
29	0x3f61392a	0.8797785
30	0x3f8c5f3c	1.0966563
31	0x3f7695d7	0.9632239
32	0x3f4b5302	0.79423535
33	0x3fa48e28	1.2855883
34	0x3f2bc575	0.6709817
35	0x3f958bdf	1.168331
36	0x3f7c96d8	0.9866767
37	0x3f591023	0.8479025
38	0x3f8526b2	1.0402434
39	0x3f920a7f	1.1409453
40	0x3f4c2c15	0.79754764
41	0x3f3958d6	0.7240118
42	0x3f682995	0.9068845
43	0x3f1982f8	0.5996547
44	0x3fb08f73	1.3793777
45	0x3edfcd83	0.4371148
46	0x3f2b5ed8	0.66941595
47	0x3f390c18	0.7228408
48	0x3f63eec0	0.8903618
49	0x3f65af14	0.89720273
50	0x3f8291f8	1.0200796
51	0x3f58d489	0.846993
52	0x3f7fd88e	0.9993981
53	0x3f3511b4	0.7073014
54	0x3f879702	1.0592959
55	0x3f62aae1	0.8854199
56	0x3fb4be74	1.4120622
57	0x3f6192c8	0.88114595
58	0x3f24b0a9	0.6433206
59	0x3f763f1a	0.96190035
60	0x3f85146f	1.0396861
61	0x3fa13072	1.2592909
62	0x3f986e9a	1.1908753
63	0x3f3386c9	0.7012754
64	0x3fa2ba68	1.2713137
65	0x3f173c44	0.59076333
66	0x3f8b5a3c	1.0886912
67	0x3f56c9ec	0.8390186
68	0x3f504427	0.8135399
69	0x3f329700	0.6976166
70	0x3fa1a683	1.262894
71	0x3f3097eb	0.6898181
72	0x3f80a540	1.005043
73	0x3f1ef5a8	0.6209359
74	0x3f9173cf	1.1363467
75	0x3f8bd105	1.0923163
76	0x3f27de8b	0.6557395
77	0x3fd9b573	1.7008499
78	0x3fa31f49	1.2743922
79	0x3f71ef33	0.94505614
80	0x3ed3ab0b	0.41341433
81	0x3ed67f41	0.41893962
82	0x3f2ce493	0.67536277
83	0x3f6f4500	0.9346466
84	0x3f943768	1.1579409
85	0x3f1c22bb	0.60990494
86	0x3fb0761d	1.3786045
87	0x3f01919a	0.50612795
88	0x3f0613ae	0.5237378
89	0x3f2e182b	0.6800563
90	0x3fa13a63	1.2595943
91	0x3fb9e515	1.4523035
92	0x3f2f5f83	0.68505114
93	0x3f2fefa0	0.68725014
94	0x3f5d77ff	0.86511225
95	0x3f1305ee	0.57430923
96	0x3f3b7c04	0.7323611
97	0x3f52b554	0.82307935
98	0x3f6d10f0	0.9260397
99	0x3f8e9e1f	1.1142005
100	0x3f7d1f0c	0.988755
101	0x3f8a8742	1.0822527
102	0x3f364e43	0.7121317
103	0x3f994f92	1.1977408
104	0x3f29422b	0.6611659
105	0x3f41e831	0.7574492
106	0x3f7c6b22	0.9860097
107	0x3f34bfe8	0.70605326
108	0x3f3e210b	0.7426917
109	0x3f8f7cc1	1.1209947
110	0x3f908ef6	1.1293628
111	0x3f6d8af4	0.9279015
112	0x3f818502	1.0118716
113	0x3f2e7b4d	0.6815689
114	0x3f4a4b6d	0.7902134
115	0x3f9e857a	1.2384484
116	0x3f6bbfcf	0.9208955
117	0x3eef13c4	0.46694767
118	0x3fa2c6e6	1.2716949
119	0x3f6305c8	0.88680696
120	0x3fa4e1d9	1.2881423
121	0x3f899300	1.0747986
122	0x3f7d0a0d	0.9884346
123	0x3f812402	1.0089114
124	0x3f21aebe	0.6315726
125	0x3f81e974	1.0149369
126	0x3f5f0747	0.8712048
127	0x3f79e356	0.9761251
128	0x3eb53f31	0.35399774
129	0x3fa34f77	1.2758626
130	0x3fa14848	1.2600183
131	0x3f16ec24	0.5895407
132	0x3f8d26db	1.1027483
133	0x3f83625b	1.0264391
134	0x3f5a0e52	0.851781
135	0x3f449a7d	0.7679823
136	0x3f673493	0.90314597
137	0x3f1c2edb	0.61008996
138	0x3e45e324	0.19324929
139	0x3f9cab23	1.2239727
140	0x3f99ce05	1.2015997
141	0x3ec5e7f3	0.38653526
142	0x3f529e01	0.82272345
143	0x3fba031d	1.45322
144	0x3f4312aa	0.76200354
145	0x3fad449c	1.3536563
146	0x3f8aea2a	1.0852711
147	0x3f71abe6	0.9440292
148	0x3f7ae5b0	0.98006725
149	0x3f804a12	1.0022604
150	0x3f9cedba	1.2260048
151	0x3f58b355	0.8464864
152	0x3f739770	0.9515295
153	0x3f5f352e	0.8719052
154	0x3f91080b	1.133058
155	0x3f2b07df	0.66808885
156	0x3f9458d1	1.1589605
157	0x3f3bf288	0.7341695
158	0x3e95929f	0.29213426
159	0x3f862c9d	1.0482365
160	0x3f3573eb	0.7088
161	0x3f2bb91a	0.6707932
162	0x3fa5539e	1.2916143
163	0x3f855cc0	1.041893
164	0x3f909acd	1.1297241
165	0x3e6056a1	0.21908046
166	0x3f04efbc	0.51928306
167	0x3f95b5b4	1.1696076
168	0x3f5a380e	0.8524178
169	0x3f9a39c5	1.204888
170	0x3f7073ed	0.9392689
171	0x3f832622	1.0246012
172	0x3f8c3fb7	1.0956944
173	0x3f537412	0.82598984
174	0x3faf4f1e	1.369602
175	0x3f550e32	0.83224785
176	0x3f9c4407	1.220826
177	0x3f2114b0	0.6292219
178	0x3feaf16c	1.8354926
179	0x3f9f774d	1.2458283
180	0x3f90cdfa	1.1312859
181	0x3edcacc9	0.43100575
182	0x3f7593c3	0.9592859
183	0x3f8faa8f	1.1223925
184	0x3f3bdc49	0.73383003
185	0x3f3a7b74	0.72844625
186	0x3f9944d1	1.1974126
187	0x3f625c78	0.88422346
188	0x3f6503e3	0.89459056
189	0x3f48896b	0.78334683
190	0x3f900eea	1.1254551
191	0x3f8e3cc5	1.1112295
192	0x3f5af83b	0.8553502
193	0x3f5a7b1c	0.853441
194	0x3fa102d4	1.2578988
195	0x3f9600e3	1.1719021
196	0x3f86e27c	1.0537868
197	0x3f441e0c	0.7660835
198	0x3f63113a	0.8869816
199	0x3ea20470	0.3164401
200	0x3f207af0	0.6268759
201	0x3f1be32a	0.608935
202	0x3f3691a4	0.7131598
203	0x3fc576bb	1.5426859
204	0x3f292d81	0.6608506
205	0x3f00a74f	0.5025529
206	0x3f56a4b9	0.83845097
207	0x3f942e54	1.1576638
208	0x3f627ea2	0.88474476
209	0x3f57d9be	0.84316623
210	0x3f4a0013	0.78906363
211	0x3f884854	1.0647073
212	0x3fa170ed	1.2612587
213	0x3f5c349d	0.8601778
214	0x3f80bb74	1.0057206
215	0x3f66863e	0.9004859
216	0x3f220601	0.6329041
217	0x3f41e739	0.7574344
218	0x3f9d24a2	1.2276804
219	0x3f8a3a75	1.079909
220	0x3f11a62a	0.5689417
221	0x3f3a0a1d	0.7267168
222	0x3f8f4073	1.1191543
223	0x3fc08f62	1.5043757
224	0x3fa4d175	1.2876421
225	0x3f8c2fcf	1.095209
226	0x3f7a0d31	0.9767638
227	0x3f5e12d0	0.86747456
228	0x3f9138fa	1.1345513
229	0x3f03a966	0.51430357
230	0x3f3c977c	0.73668647
231	0x3f704c55	0.93866473
232	0x3f8ba1e4	1.090878
233	0x3f7b8a13	0.9825756
234	0x3f425568	0.7591157
235	0x3f9525e9	1.1652194
236	0x3fafb0d5	1.372584
237	0x3f820ec1	1.0160753
238	0x3f089645	0.53354293
239	0x3f1a5280	0.60282135
240	0x3f8d2ad6	1.1028697
241	0x3f5ad484	0.85480523
242	0x3ee8f27f	0.4549751
243	0x3f481d3f	0.78169626
244	0x3f66a8f4	0.9010155
245	0x3fad33fd	1.353149
246	0x3f994df4	1.1976914
247	0x3fa42ba3	1.2825817
248	0x3f3ff396	0.7498106
249	0x3f1b4a4d	0.6066025
250	0x3f75d56a	0.9602877
251	0x3f8fc799	1.1232787
252	0x3f660e5f	0.8986568
253	0x3f7c25de	0.9849528
254	0x3f4b47f5	0.7940667
255	0x3f199d94	0.6000607

input_norm.bias f4 [768]
0	0x3ef1795c	0.47162902
1	0x3b690203	0.0035554178
2	0x3c603161	0.013683648
3	0x3e5d3047	0.21600448
4	0x3e9a8355	0.30178323
5	0xbe7fb40f	-0.2497103
6	0xbcc3c6a4	-0.02389843
7	0x3da29a0d	0.07939539
8	0xbe90c54c	-0.28275526
9	0x3ee4f61d	0.4471902
10	0xbe7a1338	-0.24421394
11	0xbd57bc73	-0.052669954
12	0x3e65943c	0.22419828
13	0xbe6cb0d5	-0.23114331
14	0xbdf860af	-0.12127816
15	0x3d36ba6e	0.044611387
16	0x3b861f5c	0.004093094
17	0xbd2da9b1	-0.04239816
18	0x3eac1e5c	0.33616912
19	0x3e56b925	0.20969065
20	0xbe3d8146	-0.18506345
21	0xbea3a7fc	-0.319641
22	0xbea5485d	-0.3228177
23	0x3d9293b5	0.07157079
24	0x3bcf83dc	0.0063328575
25	0x3ebf14b7	0.37320492
26	0xbe19e33d	-0.15028091
27	0x3dfb789b	0.12278863
28	0xbd1c1db7	-0.038114276
29	0x3c06fda5	0.0082391845
30	0xbf138473	-0.57623976
31	0xbdd4ae59	-0.10384817
32	0xbd22b702	-0.03972531
33	0xbe6c36d0	-0.23067784
34	0xbed63882	-0.41839987
35	0x3d446cae	0.047955208
36	0xbea36d8c	-0.31919515
37	0x3d4419d4	0.047876194
38	0xbb3296fd	-0.002725064
39	0x3d99ed84	0.07516006
40	0x3d7e3f71	0.06207222
41	0x3e88fc79	0.2675512
42	0xbef1b71a	-0.47210008
43	0x3e1e4237	0.15454946
44	0xbe758370	-0.2397592
45	0x3e568b97	0.20951687
46	0x3f12c647	0.573338
47	0x3f128b38	0.5724368
48	0xbe95e2ee	-0.29274696
49	0xbe535dd4	-0.20641261
50	0x3e23b286	0.1598607
51	0xbd7227b3	-0.05911989
52	0x3e96bfd0	0.29443216
53	0xbe74c1c8	-0.23902047
54	0x3e1b5491	0.15168978
55	0x3e654f4a	0.22393528
56	0x3e8345ed	0.25639287
57	0x3e03ba75	0.12864096
58	0x3d8f210d	0.06988726
59	0x3cf78321	0.030213894
60	0xbe99a529	-0.3000882
61	0xbc43ec59	-0.011958205
62	0xbe7afebb	-0.24511234
63	0xbe91dc58	-0.2848842
64	0x3df9e047	0.12200981
65	0x3d4fd5c1	0.05074096
66	0x3cc48b26	0.023992132
67	0xbee0748e	-0.43838924
68	0x3dbf5e09	0.09344108
69	0x3e884d16	0.26621312
70	0xbbd3733f	-0.0064529474
71	0xbe0d8e07	-0.1382371
72	0xbe5b8975	-0.21439154
73	0xbdf6582b	-0.120285355
74	0xbe705183	-0.23468594
75	0x3d3e65aa	0.046483673
76	0x3e510b37	0.20414434
77	0x3e9f4447	0.3110678
78	0xbe89135d	-0.26772586
79	0x3de52101	0.111879356
80	0x3e77bf6a	0.24194112
81	0xbd1aef85	-0.03782608
82	0x3ed10815	0.4082648
83	0xbe1bb4e2	-0.1520572
84	0x3d39b3b0	0.04533738
85	0xbe7a64dd	-0.24452539
86	0x3eef8899	0.46783903
87	0x3e9730bb	0.29529366
88	0xbe1640be	-0.14673135
89	0xbbf7198b	-0.0075408868
90	0xbf16fe4f	-0.58981794
91	0xbe649a8f	-0.22324584
92	0xbe3decf3	-0.1854742
93	0xbedd6f45	-0.43248954
94	0xbd705670	-0.058676183
95	0xbe07cd09	-0.13261808
96	0xbdd3cbc5	-0.103416
97	0xba8aa0bb	-0.0010576466
98	0x3e46c462	0.19410852
99	0x3da55faa	0.08074887
100	0xbef71a8e	-0.48262447
101	0xbe3ae7d7	-0.18252502
102	0xbd577880	-0.052605152
103	0xbccec360	-0.025239646
104	0xbe5e35fa	-0.21700278
105	0xbe92b707	-0.28655264
106	0xbe5e0cf5	-0.2168463
107	0xbdf5dbb2	-0.12004794
108	0xbe19ac85	-0.15007217
109	0xbddccc92	-0.10781206
110	0xbeb401f0	-0.35157728
111	0x3ebbfe0b	0.36717257
112	0xbdd22e29	-0.102627106
113	0x3e163824	0.14669853
114	0x3e147cf4	0.14500791
115	0xbe7a1612	-0.24422482
116	0x3f242d8a	0.6413199
117	0xbdbf5897	-0.09343069
118	0xbe7e6376	-0.24842629
119	0x3d06dac8	0.03292349
120	0x3f204aca	0.6261412
121	0xbcd28b00	-0.025701046
122	0xbd53f984	-0.05175163
123	0xbe3d54b5	-0.18489344
124	0xbe5dfddb	-0.2167887
125	0xbd7382e5	-0.059451003
126	0x3e767d0b	0.24071138
127	0x3cb842b1	0.022492738
128	0xbded4de5	-0.11587123
129	0xbf26a275	-0.6509164
130	0x3eaee52c	0.3415922
131	0x3d0acbee	0.03388589
132	0xbf15b5c0	-0.58480453
133	0x3f0b613a	0.5444523
134	0x3eac3be7	0.33639452
135	0xbe6b875b	-0.23000853
136	0x3e8d818d	0.27637902
137	0x3d38ed7b	0.045148354
138	0x3e45ce24	0.19316918
139	0x3da2df1a	0.079527095
140	0xbea69df3	-0.3254238
141	0x3e707dc4	0.23485476
142	0xbf0214cb	-0.5081298
143	0xbeade067	-0.33960268
144	0xbeade478	-0.3396337
145	0x3e706176	0.23474678
146	0xbf028010	-0.5097666
147	0x3d2aef09	0.041731868
148	0xbf041814	-0.5159924
149	0xbe436587	-0.19081698
150	0xbd63f43c	-0.055652842
151	0xbbe92ac3	-0.0071156933
152	0x3e078a12	0.13236263
153	0xbc8dbb83	-0.017301327
154	0x3d6a3bec	0.057186052
155	0x3ea3bf97	0.3198211
156	0xbe11fe92	-0.14257267
157	0xbd9d60d6	-0.076844856
158	0x3debc913	0.11512961
159	0x3e257e43	0.16161446
160	0xbdc81db3	-0.0977129
161	0x3e5330ad	0.20624037
162	0x3e6a1df9	0.22862996
163	0x3e93f6cf	0.28899238
164	0x3f02d9b9	0.5111347
165	0xbe81d8f1	-0.25360826
166	0x3d68130e	0.056658797
167	0x3d1ab922	0.037774213
168	0xbe93d6cb	-0.28874812
169	0xbea1f9e2	-0.31635958
170	0xbc8e319b	-0.017357638
171	0xbe7ab63e	-0.24483582
172	0x3e89de87	0.26927587
173	0xbf0149aa	-0.5050303
174	0x3d70e039	0.058807585
175	0xbd952665	-0.07282714
176	0xbe7c6579	-0.24648084
177	0xbf037c23	-0.5136129
178	0x3e3efc68	0.18650973
179	0xbe89a0ef	-0.26880595
180	0x3e888086	0.26660556
181	0x3dc30b68	0.0952366
182	0x3dd61445	0.10453085
183	0x3e5a0b2e	0.21293327
184	0xbab98bc0	-0.0014156029
185	0x3e302f8a	0.17205635
186	0x3e09ac6e	0.13444683
187	0xbd70d389	-0.058795486
188	0x3ea1b645	0.31584373
189	0xbe1a1a35	-0.1504906
190	0x3c0e507b	0.00868618
191	0xbee1c418	-0.4409492
192	0xbecb260c	-0.39677465
193	0xbe4c21d4	-0.1993478
194	0x3d23423f	0.0398581
195	0x3f41d7f2	0.7572013
196	0x3d47d004	0.048782364
197	0x3ebb950f	0.3663716
198	0x3e956591	0.29179052
199	0xbe2f0d5e	-0.17094943
200	0x3e20c6b0	0.15700793
201	0x3cfcf51e	0.0308786
202	0xbd667ceb	-0.056271475
203	0x3e476277	0.19471155
204	0xbeec3a0f	-0.46138045
205	0xbeda1a59	-0.42598227
206	0x3e2a1ee1	0.16613342
207	0xbc43e4e6	-0.011956429
208	0xbe86797a	-0.26264554
209	0x3eab4de3	0.3345786
210	0x3eba415f	0.36378
211	0x3e1a5e5a	0.15075055
212	0xbe741a1e	-0.23838088
213	0x3d4d90dc	0.050186977
214	0xbe111e0d	-0.1417162
215	0x3e019cf1	0.12657525
216	0xbf071ea7	-0.52781147
217	0x3e414a02	0.18875888
218	0xbecdac72	-0.40170628
219	0x3dde579e	0.108565554
220	0x3c6df11d	0.014522818
221	0xbe422431	-0.18959118
222	0xbe202885	-0.15640457
223	0x3f10aba2	0.5651189
224	0xbebe871a	-0.3721245
225	0xbec68bdd	-0.38778582
226	0x3dffceec	0.12490639
227	0x3e86b76a	0.2631181
228	0x3cf00ed3	0.029303944
229	0x3eaa6002	0.33276373
230	0x3ef4bf9f	0.47802445
231	0xbe676e74	-0.22600728
232	0xb9881d7d	-0.00025961912
233	0x3e2ebfe8	0.17065394
234	0xbe4735aa	-0.19454065
235	0x3e82beae	0.25536102
236	0xbde33e53	-0.11095872
237	0x3d83ce24	0.064358026
238	0xbd3e3d81	-0.046445373
239	0xbe89fba5	-0.26949802
240	0xbe422eb6	-0.18963131
241	0x3e074126	0.13208446
242	0xbf2bbe8a	-0.67087615
243	0xbec20720	-0.3789606
244	0xbc5bc400	-0.013413429
245	0x3e60fe0d	0.21971913
246	0xbcef6c05	-0.029226312
247	0x3da89ecb	0.08233412
248	0x3e14e772	0.14541414
249	0x3e5e7f54	0.2172826
250	0xbe68cb1e	-0.22733733
251	0xbf3210b0	-0.69556713
252	0xbc0fb6cb	-0.008771609
253	0xbe41225e	-0.18860766
254	0x3d49b8ff	0.04924869
255	0x3e2ddeed	0.1697957

conv_blocks.0.0.weight f4 [128, 1, 3]
0	0x3c9506b6	0.018191677
1	0x3a4f078e	0.0007897549
2	0xbd92ea9f	-0.07173657
3	0x3d9425b8	0.07233757
4	0x3cb88a19	0.022526788
5	0x3d17c286	0.037050746
6	0x3d663260	0.056200385
7	0xbc966f58	-0.01836364
8	0xbd1f69ee	-0.03891938
9	0xbdf52d71	-0.11971558
10	0x3ca60d4a	0.020270009
11	0xbb8b7950	-0.004256405
12	0x3bfe70c7	0.007764909
13	0x3b380df5	0.002808449
14	0xbc3ef6e5	-0.011655544
15	0xbd2a6f3d	-0.04160999
16	0xb95268bd	-0.00020066179
17	0x3b739f15	0.0037173678
18	0x3d1c0c91	0.03809792
19	0x3bbd3585	0.0057742023
20	0x3df2b2f0	0.11850536
21	0x3cb58f9c	0.022163205
22	0x3b3de7ff	0.0028977392
23	0xbd1e8c21	-0.038707856
24	0x3ca3056d	0.019900048
25	0x3cbf62a6	0.023362469
26	0x3d8f0705	0.06983761
27	0x3dc859d6	0.0978276
28	0x3c9688ca	0.018375773
29	0xba0c2b22	-0.00053470035
30	0xbd052373	-0.03250451
31	0xbcd608df	-0.026127277
32	0xbd15a5df	-0.03653514
33	0xbc00a5a3	-0.007851991
34	0xbbed1e9f	-0.0072363163
35	0xbd177883	-0.036980163
36	0x3c58fa52	0.013243275
37	0xbbb0f577	-0.0054003554
38	0xbb9330e5	-0.0044919127
39	0x3c903735	0.01760445
40	0xbcef708f	-0.029228477
41	0xbd03f3c2	-0.032214887
42	0xbc362c5c	-0.011118975
43	0xbb7a1bda	-0.0038163573
44	0xbc73edf9	-0.01488828
45	0x3d0a3eb6	0.033751212
46	0x38faa0ec	0.00011950903
47	0xbcf4d6fa	-0.029887665
48	0xbdd5057f	-0.10401439
49	0x3d4add86	0.049527667
50	0x3d4f36db	0.050589424
51	0x3d2046cd	0.03913002
52	0x3cb5df31	0.022201153
53	0x3cf231d9	0.029564785
54	0xbdeac666	-0.11463623
55	0xbd58ddb5	-0.05294581
56	0x3c65fd37	0.014037422
57	0x3c200f9c	0.009769347
58	0xb9e72cc3	-0.00044093103
59	0x3cb03f36	0.021514516
60	0xbdd05f00	-0.1017437
61	0xbcbb5041	-0.022865416
62	0x3b91b920	0.0044471174
63	0x3cb84c04	0.022497185
64	0xbc38286e	-0.011240108
65	0xbca02551	-0.019549044
66	0x3d968765	0.07350043
67	0x3cb5d7dc	0.022197656
68	0xbc3b0c0f	-0.011416449
69	0x3cc70536	0.024294477
70	0xbc9d27ab	-0.019183954
71	0xbd327b9d	-0.043574918
72	0xbacaad20	-0.0015462972
73	0xbc9bf21a	-0.019036341
74	0x3d46d94b	0.04854707
75	0xbd79f24a	-0.06102208
76	0xbc45cc0f	-0.012072577
77	0xbd3ebc39	-0.046566222
78	0xbd3ef5a6	-0.046620987
79	0x3cdc88cc	0.026920699
80	0x3c899e2e	0.016799059
81	0x3d29270d	0.041297007
82	0xbccae948	-0.02476944
83	0xbb54980f	-0.0032439267
84	0xbb13b86e	-0.0022540349
85	0xbcd11365	-0.025521943
86	0x3d43fec6	0.047850393
87	0xbd1dec80	-0.038555622
88	0xbc821abd	-0.01588189
89	0x3d5907eb	0.052986067
90	0xbd310eb1	-0.0432269
91	0x3c5dd592	0.013539689
92	0xbd2bfa92	-0.04198701
93	0xbe2dab7d	-0.16959949
94	0xbcf6838a	-0.03009202
95	0xbae1ede0	-0.001723703
96	0xbc139a18	-0.009008907
97	0xbc126508	-0.008935221
98	0xbcd7be61	-0.026335897
99	0xbd02b198	-0.031907648
100	0x3c7693a3	0.015049848
101	0x3cb3eee9	0.021964507
102	0x3be04d0d	0.0068451227
103	0x3d1b30af	0.037888225
104	0xbd34dc0b	-0.04415516
105	0xbd429fcd	-0.04751568
106	0xbad78d3a	-0.0016445287
107	0x3d230386	0.039798282
108	0xbd273069	-0.040817652
109	0xbbab698b	-0.0052310876
110	0x3c433a45	0.011915748
111	0x3d91a2f1	0.07111157
112	0x3cc7ce0f	0.024390249
113	0xbcd82602	-0.026385311
114	0x3d330110	0.043702185
115	0x3c138101	0.009002925
116	0xbd0d5530	-0.03450507
117	0x3d00231a	0.031283475
118	0x3c6f47ba	0.014604503
119	0xbd1fbbf1	-0.038997594
120	0xbd5377f4	-0.051628068
121	0x3b9a4051	0.004707374
122	0x3c932029	0.017959671
123	0xbc9ede08	-0.019392982
124	0xbca475d1	-0.02007571
125	0xbd7469b6	-0.059671126
126	0xbd1e2981	-0.0386138
127	0x3be12667	0.006871033
128	0x3cf53186	0.029930841
129	0x3d4da9e5	0.050210852
130	0x3bc65e2d	0.006053707
131	0xbb525d5c	-0.0032099104
132	0x3c9870ef	0.018608538
133	0xbccd3a01	-0.025052072
134	0xbce53633	-0.027979946
135	0xbda679a2	-0.08128668
136	0xbd701f8b	-0.05862383
137	0x3c19b5ad	0.009381694
138	0x3e06a295	0.13147958
139	0xbaa4145b	-0.0012518273
140	0xbc3a7150	-0.011379555
141	0xb907c55d	-0.00012948127
142	0x3b6bace4	0.0035961205
143	0xbcac5a0c	-0.021039031
144	0xbc074020	-0.008255035
145	0xba78cc9f	-0.000949094
146	0xbc9412dd	-0.018075401
147	0xbdc6be0a	-0.09704216
148	0xbd094762	-0.03351534
149	0x3c9a9a51	0.018872412
150	0x3c9183ec	0.0177631
151	0x3b7cb8a6	0.0038562207
152	0x3c5e4604	0.013566498
153	0xbd03e501	-0.032200817
154	0xbcfcca07	-0.030858053
155	0x3d257918	0.040398687
156	0xbca91f20	-0.020644724
157	0x3d2ca924	0.042153493
158	0x3d2af567	0.04173794
159	0xbd5005ea	-0.05078689
160	0x3c620192	0.01379432
161	0x3cc70ca5	0.024298022
162	0xbd001809	-0.03127292
163	0xbccf8523	-0.02533204
164	0xbd31c2b0	-0.04339856
165	0xbb37c27e	-0.002803951
166	0xbc2cc41e	-0.010544805
167	0xbaafa582	-0.0013400766
168	0xbc24c27e	-0.010056136
169	0xbcc2d856	-0.023784798
170	0x3d84be54	0.06481615
171	0xbd01746c	-0.03160517
172	0x3d70e1c7	0.058809068
173	0x3c69ed7d	0.014277813
174	0xbd4e2d29	-0.050336037
175	0xbd117dcf	-0.03552037
176	0x3d09ffec	0.03369133
177	0xbd9796e9	-0.07401831
178	0xbb124d9a	-0.0022324086
179	0x3c8ac932	0.01694164
180	0xbd3a2eeb	-0.0454549
181	0xbc85ac5f	-0.016317545
182	0xbd25e503	-0.040501606
183	0x3d2d3e2c	0.04229562
184	0x3cdec1ec	0.027192079
185	0x3d635960	0.055505157
186	0xbb5e982f	-0.003396522
187	0xbb4b9a42	-0.0031067287
188	0xbc1b7bb5	-0.009489943
189	0x3c08dcde	0.00835344
190	0xbc132ea4	-0.008983288
191	0xbb597977	-0.003318397
192	0x3d072646	0.032995485
193	0x3b924e3b	0.004464892
194	0xbca9e50e	-0.020739105
195	0x3cd6ca64	0.026219554
196	0x3c82f6a4	0.015986748
197	0xbd263331	-0.040576164
198	0xbc481176	-0.012211194
199	0x3cb2e6d7	0.021838589
200	0x3e04b32e	0.12958977
201	0x3cebbe7f	0.028777359
202	0x3baba122	0.0052377144
203	0xbcdcbb42	-0.02694476
204	0xbde492b1	-0.11160792
205	0x3c97e393	0.018541133
206	0xba508f12	-0.00079558895
207	0x3cae387f	0.021267174
208	0x3c31b0b1	0.010845349
209	0xbd61da65	-0.055139918
210	0x3d13ba5b	0.036066394
211	0xbd2a9f11	-0.041655604
212	0xbc2ecc26	-0.01066879
213	0x3c981e26	0.018569063
214	0x3ca37e4f	0.01995769
215	0x3dc7a619	0.097484775
216	0xbd2a6b1e	-0.04160606
217	0xbc87eef4	-0.016593434
218	0x3d0d78f0	0.034539163
219	0xbc4316e9	-0.011907318
220	0x3b337106	0.00273806
221	0xbb24ae0f	-0.002512816
222	0x3c840368	0.016114905
223	0x3b8daa68	0.0043232925
224	0x3c768e10	0.015048519
225	0xbd00bce4	-0.03143014
226	0xbc1d3c30	-0.009596869
227	0xbd5910d2	-0.052994557
228	0xbd4b362c	-0.04961221
229	0xbd1a8e93	-0.037733626
230	0xbcdeb46e	-0.027185645
231	0x3d2f02e8	0.04272738
232	0x3cc93776	0.024562579
233	0x3dacaa5d	0.08430932
234	0x3c5e7a06	0.013578897
235	0x3c8defea	0.017326314
236	0x3e0faf31	0.14031674
237	0x3b094e86	0.0020951345
238	0x3beff1ca	0.0073225247
239	0xbafe0767	-0.0019380868
240	0xbca59e69	-0.020217137
241	0xbc6b3bdb	-0.014357532
242	0xbd1a0774	-0.037604764
243	0xbc062f46	-0.008189982
244	0x3c92f5e1	0.01793951
245	0x3d4f6541	0.050633673
246	0xbc6d9b00	-0.014502287
247	0x3aaee456	0.0013343196
248	0x3bf4a7ba	0.0074662836
249	0xbdc26562	-0.094919935
250	0xbc014180	-0.007889152
251	0xbc981302	-0.018563751
252	0xbbc31e16	-0.0059545143
253	0xbbc01d9b	-0.0058629042
254	0xbc5590a0	-0.01303497
255	0x3c462c64	0.0120955445

conv_blocks.0.0.bias f4 [128]
0	0x3f2bee62	0.6716062
1	0xbf335038	-0.7004428
2	0xbea9d1d6	-0.33167905
3	0xbd3b2326	-0.045687817
4	0xbf0e67ea	-0.5562731
5	0xbea5b1ad	-0.32362118
6	0xbf0878ed	-0.5330952
7	0xbf285de0	-0.6576824
8	0x3d7af9e8	0.061273485
9	0x3e886352	0.26638275
10	0xbedfabdc	-0.43685806
11	0xbf18f41a	-0.5974747
12	0xbf0f9622	-0.5608846
13	0xbe556dee	-0.20842716
14	0xbf0efc61	-0.5585385
15	0xbf0a4561	-0.54012114
16	0xbf3f2af9	-0.74674946
17	0x3e7b4aeb	0.24540298
18	0xbf305b0e	-0.6888894
19	0xbf07c432	-0.53033745
20	0xbe985e22	-0.29759318
21	0xbf2c1428	-0.67218256
22	0xbe34a36b	-0.17640464
23	0x3de40ed4	0.11135641
24	0x3e89d322	0.26918894
25	0xbd839cf5	-0.064264216
26	0x3eac4ab7	0.33650753
27	0x3e43afeb	0.19110076
28	0x3ee617b7	0.44939968
29	0xbe85432e	-0.26027817
30	0xbcd23264	-0.025658794
31	0xbe0d3b8c	-0.13792247
32	0xbec1a50c	-0.37821233
33	0xbe12d65f	-0.14339589
34	0x3e0f0d9f	0.1397004
35	0x3e84873c	0.25884426
36	0xbf28f2d1	-0.6599551
37	0x3e3a6dc3	0.18205933
38	0x3f1d6dab	0.61495465
39	0x3e9d9f5f	0.30785653
40	0x3e9dd5a4	0.30827057
41	0x3ea29543	0.31754503
42	0x3ef3ba4f	0.4760308
43	0xbf29e12b	-0.66359204
44	0xbcaa50ba	-0.020790447
45	0xbf25655e	-0.646078
46	0x3e83527a	0.25648862
47	0xbeeccf65	-0.4625198
48	0xbf0907b5	-0.53527385
49	0xbe5c0ab9	-0.21488465
50	0xbeed8f60	-0.4639845
51	0x3e62e71b	0.22158472
52	0xbda5e238	-0.080997884
53	0x3ef3c867	0.47613832
54	0x3e17217a	0.14758864
55	0xbf2e8416	-0.681703
56	0xbe37a37b	-0.17933457
57	0xbefd7441	-0.49502757
58	0xbf3d29f4	-0.7389214
59	0x3da11ab9	0.07866425
60	0xbc0e7718	-0.008695386
61	0xbdec1540	-0.115274906
62	0xbf0b1aea	-0.5433794
63	0xbefb33f3	-0.49063072
64	0xbe9f1e0c	-0.3107761
65	0x3dbe3ba2	0.09288718
66	0xbf1d8611	-0.61532694
67	0xbf218a5b	-0.6310174
68	0xbf0719aa	-0.52773535
69	0x3e617d0b	0.22020356
70	0x3f3dea6f	0.7418584
71	0xbe97719b	-0.29578862
72	0x3ed079fe	0.40718073
73	0xbf099778	-0.5374675
74	0xbef0ca43	-0.47029313
75	0xbcd4a310	-0.02595666
76	0xbee04067	-0.43799135
77	0xbf0d2e7e	-0.55149066
78	0xbf22a230	-0.6352873
79	0xbf261e5e	-0.64890087
80	0xbc67e905	-0.014154677
81	0x3ec53891	0.3851972
82	0xbefee62b	-0.4978498
83	0x3b5756ea	0.0032858201
84	0xbf12b11c	-0.573015
85	0xbe38b3b2	-0.18037298
86	0xbef97484	-0.48721707
87	0xbef86fbb	-0.48522744
88	0xbf14c8f5	-0.58119136
89	0xbd67a3f3	-0.05655284
90	0x3d143eca	0.036192693
91	0xbf18fccc	-0.5976074
92	0xbdcc0f6b	-0.09963878
93	0xbebd9a0d	-0.37031594
94	0xbf198481	-0.5996781
95	0xbeed0793	-0.4629484
96	0xbefb33ff	-0.49063107
97	0xbf31132d	-0.69169885
98	0xbf200ad9	-0.6251655
99	0x3d009756	0.031394325
100	0x3cdd8fc0	0.027046084
101	0xbb8f2358	-0.004368227
102	0x3ef14805	0.4712526
103	0x3eb49c44	0.3527547
104	0xbe5ac3e4	-0.21363789
105	0x3ec4a360	0.38405895
106	0xbf109f7a	-0.5649334
107	0xbee4380d	-0.44574013
108	0xbec0267a	-0.37529355
109	0xbedf90f6	-0.43665284
110	0xbda1566a	-0.0787781
111	0xbeb5a7f0	-0.3547969
112	0x3ecc1c46	0.3986532
113	0x3e663f9a	0.224852
114	0xbf0cf1b7	-0.5505633
115	0x3ecbeb0d	0.39827767
116	0xbf1ff708	-0.62486315
117	0x3cc38f12	0.023871932
118	0xbdfb55ca	-0.12272222
119	0xbe96cf3e	-0.29454988
120	0xbe67458c	-0.22585124
121	0xbe663694	-0.22481757
122	0xbe5a101b	-0.21295206
123	0xbe818040	-0.2529316
124	0x3eeeb45c	0.46621978
125	0xbf10d428	-0.56573725
126	0x3e9f1058	0.31067157
127	0xbf1526bd	-0.58262235

conv_blocks.0.2.weight f4 [128]
0	0x3f28ccd8	0.65937567
1	0x3f576f65	0.8415435
2	0x3f1dcdef	0.61642355
3	0x3f236556	0.638265
4	0x3f447e12	0.7675487
5	0x3f237e8e	0.6386498
6	0x3f3e3db3	0.74312896
7	0x3f5c89ff	0.86148065
8	0x3f2f169b	0.6839387
9	0x3f2d1f1c	0.67625594
10	0x3f253670	0.6453619
11	0x3f5019ab	0.81289166
12	0x3f3a717b	0.7282941
13	0x3f17122b	0.590121
14	0x3f42975e	0.7601222
15	0x3f3bf579	0.73421437
16	0x3f834706	1.025605
17	0x3f0f44f4	0.5596459
18	0x3f763b50	0.96184254
19	0x3f3e51eb	0.74343747
20	0x3f2febf5	0.68719417
21	0x3f3e92b9	0.7444263
22	0x3f145c25	0.579531
23	0x3f1def4e	0.61693275
24	0x3f10d703	0.5657808
25	0x3f306b79	0.6891399
26	0x3f13e566	0.5777191
27	0x3f1ba212	0.60794175
28	0x3f188c28	0.5958886
29	0x3f2ad14f	0.6672563
30	0x3f1aaaa1	0.6041661
31	0x3f30e2dd	0.69096166
32	0x3f2f3244	0.68436074
33	0x3f159c11	0.58441263
34	0x3f021bef	0.50823873
35	0x3f2c5d9d	0.6733034
36	0x3f49d10f	0.78834623
37	0x3f15bd84	0.584923
38	0x3f2e2fc9	0.68041664
39	0x3f2c2f07	0.6725926
40	0x3f27e75d	0.6558741
41	0x3f34fa40	0.7069435
42	0x3f2411c3	0.640896
43	0x3f59b9a6	0.850489
44	0x3f0b9eef	0.5453939
45	0x3f4b070f	0.79307646
46	0x3f26c9d2	0.65151703
47	0x3f339e83	0.70163745
48	0x3f44a8f7	0.7682032
49	0x3f234294	0.63773465
50	0x3f3946fa	0.72373927
51	0x3f1b83fe	0.6074828
52	0x3f0a1237	0.53934044
53	0x3f14fbc8	0.5819669
54	0x3f271f82	0.6528245
55	0x3f5088a2	0.81458485
56	0x3f0be2ac	0.5464275
57	0x3f0ce6b2	0.55039513
58	0x3f685e55	0.9076894
59	0x3f2ccde1	0.67501646
60	0x3f2c510d	0.67311174
61	0x3f38c49b	0.72174996
62	0x3f4304a7	0.76178974
63	0x3f26a162	0.6509
64	0x3f2c24c9	0.6724363
65	0x3f1dc936	0.6163515
66	0x3f50f44c	0.8162277
67	0x3f52c66e	0.8233403
68	0x3f3137bf	0.69225687
69	0x3f2787f8	0.65441847
70	0x3f0a3e1e	0.54001033
71	0x3f34ae6b	0.7057864
72	0x3f2300c9	0.63673073
73	0x3f43b94b	0.7645461
74	0x3f3be494	0.7339566
75	0x3f2aee3a	0.66769755
76	0x3f1f2ea8	0.62180567
77	0x3f3b1180	0.7307358
78	0x3f5b3b78	0.8563762
79	0x3f48f0a5	0.78492194
80	0x3f1fc1ee	0.6240529
81	0x3f0fabe4	0.5612166
82	0x3f2e6191	0.68117625
83	0x3f33e458	0.702703
84	0x3f4c1122	0.7971364
85	0x3f200910	0.6251383
86	0x3f2985c6	0.6621975
87	0x3f409527	0.7522759
88	0x3f4aafc6	0.7917446
89	0x3eee64de	0.4656133
90	0x3f144f11	0.57933146
91	0x3f49af4c	0.78783107
92	0x3f354c96	0.70819986
93	0x3f2ba0e4	0.67042375
94	0x3f5220fb	0.82081574
95	0x3f2cf6bf	0.67564005
96	0x3f3fed8b	0.74971837
97	0x3f5b433d	0.8564947
98	0x3f493edf	0.7861156
99	0x3f2a8b15	0.6661847
100	0x3f007cd1	0.50190455
101	0x3f2b96bd	0.67026883
102	0x3f370985	0.714989
103	0x3f0e5c08	0.5560918
104	0x3f30424c	0.6885116
105	0x3f2f77d1	0.685422
106	0x3f49fd95	0.7890256
107	0x3f05f140	0.52321243
108	0x3f31467a	0.69248164
109	0x3f30ed76	0.69112337
110	0x3f2fffe9	0.6874986
111	0x3f09bd9f	0.53804964
112	0x3f1e026a	0.61722434
113	0x3f20d1ff	0.6282043
114	0x3f2ad7b4	0.66735387
115	0x3f298bb4	0.66228795
116	0x3f51ffa4	0.820307
117	0x3f17d9af	0.59316534
118	0x3f2a0735	0.6641725
119	0x3f272355	0.6528829
120	0x3f2a3a27	0.66494983
121	0x3f36ec79	0.7145458
122	0x3f148109	0.5800939
123	0x3f338d3a	0.7013737
124	0x3f2e6703	0.68125933
125	0x3f4793dd	0.77959996
126	0x3f26d75f	0.6517238
127	0x3f460a03	0.77359027

conv_blocks.0.2.bias f4 [128]
0	0xbe6ed67c	-0.23324007
1	0x3de46a4d	0.11153088
2	0x3e49678b	0.19668405
3	0x3e79bb8d	0.24387951
4	0xbe6f0def	-0.23345159
5	0xbe80cbb4	-0.25155413
6	0x3e207607	0.15670024
7	0xbbc54070	-0.0060196444
8	0x3e993651	0.29924253
9	0x3e87f130	0.265512
10	0x3e7ec38c	0.24879283
11	0xbc73ffee	-0.014892561
12	0x3e1ebe4b	0.15502279
13	0xbe493a67	-0.19651185
14	0x3e2526dd	0.16128106
15	0x3df44cbf	0.11928701
16	0xbdc40e57	-0.095730476
17	0xbe46373e	-0.1935701
18	0x3e8b4e8a	0.27208358
19	0xbe0b7017	-0.13616978
20	0x3d8ea111	0.06964315
21	0x3b997676	0.004683311
22	0x3e8df0c0	0.2772274
23	0xbdd9cfe7	-0.10635357
24	0xbe2660e1	-0.16247894
25	0x3e8ad849	0.27118137
26	0x3e50bac5	0.20383747
27	0xbea62167	-0.3244736
28	0xbe68954a	-0.227132
29	0x3dce359e	0.100688204
30	0x3e707fe9	0.23486294
31	0x3e1ff512	0.1562083
32	0xbe66382a	-0.22482362
33	0xbe109ce2	-0.14122346
34	0x3e9098ae	0.28241485
35	0xbde51f0d	-0.11187563
36	0xbe19f45b	-0.1503462
37	0x3e5058f7	0.20346437
38	0xbe077b4c	-0.13230628
39	0xbdef69ad	-0.11690078
40	0xbe7a8dc3	-0.2446814
41	0xbda01d7a	-0.07818122
42	0xbdfa1bec	-0.12212357
43	0x3e02e42a	0.1278235
44	0xbe9fdc7c	-0.31222904
45	0x3e89d778	0.26922202
46	0x3e9dfb93	0.30855998
47	0xbe8ca302	-0.27468115
48	0x3de369ea	0.11104186
49	0x3e7d8977	0.2475947
50	0xbe34bedc	-0.17650932
51	0x3e76d452	0.24104431
52	0x3eadc0f8	0.33936286
53	0xbe378139	-0.17920388
54	0x3c0fa759	0.008767926
55	0xbc71f36b	-0.014767508
56	0x3ea616d0	0.3243928
57	0x3e9a8bf0	0.3018489
58	0xbdd9de1d	-0.10638068
59	0x3c96bd16	0.01840071
60	0x3deee078	0.11663908
61	0x3e42d4f2	0.19026545
62	0xbe4a7cf5	-0.1977423
63	0xbdfd34d0	-0.12363589
64	0xbe27b037	-0.16375814
65	0xbe8d612e	-0.27613205
66	0x3e90f681	0.28313068
67	0x3e9a7927	0.30170557
68	0x3ea874f9	0.32901743
69	0xbdc572fd	-0.09641073
70	0xbebf1664	-0.3732177
71	0x3e6040cc	0.21899718
72	0xbe40becb	-0.18822782
73	0xbdaca363	-0.08429601
74	0xbdf32377	-0.11871999
75	0xbc0f75c9	-0.0087561095
76	0x3da2cf14	0.07949653
77	0x3e240ef5	0.1602133
78	0x3ea0bef5	0.3139569
79	0xbd432f6b	-0.047652643
80	0xbe7add4f	-0.24498485
81	0xbdabc17a	-0.08386512
82	0xbe92718e	-0.2860226
83	0x3e1eb7db	0.15499823
84	0xbe36fa67	-0.17868958
85	0xbe999335	-0.29995123
86	0xbdb62fd3	-0.088958405
87	0xbe450383	-0.19239621
88	0xbb18bb3e	-0.0023304964
89	0x3e8ff9bf	0.2812023
90	0xbe9e1b60	-0.3088026
91	0xbe5d9106	-0.21637353
92	0x3e912fa5	0.28356662
93	0xbe60c403	-0.21949773
94	0xbe453d94	-0.19261771
95	0xbdb2f2ad	-0.08737693
96	0xbe32f936	-0.17477879
97	0xbe36d01b	-0.17852823
98	0x3e10fe65	0.14159544
99	0xbc89ad1b	-0.016806176
100	0xbeb2cfec	-0.34924257
101	0x3ddbb8f2	0.10728635
102	0x3c925493	0.017862594
103	0xbeaf0357	-0.34182236
104	0xbd956c89	-0.07296092
105	0xbe0b80c5	-0.1362334
106	0xbdc8dd68	-0.09807855
107	0x3e96e384	0.29470456
108	0x3ea2aee9	0.3177407
109	0x3e8162a4	0.2527057
110	0x3e59307e	0.21209905
111	0x3de45974	0.11149874
112	0xbe844eb6	-0.25841302
113	0x3e8661c5	0.26246467
114	0xbe2b9c98	-0.16758955
115	0xbe4412c1	-0.19147779
116	0xbe7fc77c	-0.24978441
117	0x3eb48924	0.3526088
118	0x3da1e59d	0.079051234
119	0xbe81abcf	-0.25326392
120	0x3d516a03	0.05112649
121	0x3e84e775	0.25957838
122	0x3e84945f	0.25894448
123	0x3e8bed78	0.27329612
124	0xbe67ef35	-0.22649844
125	0xbdb83607	-0.0899468
126	0x3d5417d0	0.051780522
127	0x3e9a163e	0.30095094

conv_blocks.0.2.running_mean f4 [128]
0	0x3f01072d	0.50401574
1	0xbe2c32fa	-0.16816321
2	0xbdf8e9ed	-0.12153993
3	0xbc890f82	-0.016731028
4	0xbe2482c0	-0.16065502
5	0xbdf55ba5	-0.119803704
6	0xbe1e9da7	-0.15489827
7	0xbe2b6fc4	-0.16741854
8	0x3d06c877	0.032906022
9	0x3e269f70	0.16271758
10	0xbe12ff41	-0.14355184
11	0xbe27f80d	-0.16403218
12	0xbe250e9b	-0.16118853
13	0xbdb01530	-0.08597791
14	0xbe24ac83	-0.16081433
15	0xbe2279bf	-0.15866755
16	0xbe2b4534	-0.16725618
17	0x3e165a74	0.14682943
18	0xbe29fc29	-0.16600098
19	0xbe21c5c0	-0.15798092
20	0xbde26926	-0.11055212
21	0xbe2c5d09	-0.16832365
22	0xbd97de3f	-0.07415437
23	0x3d7cdef6	0.06173607
24	0x3e26fd7e	0.16307637
25	0xbce20bec	-0.027593575
26	0x3e5a9cba	0.21348849
27	0x3de2d268	0.11075288
28	0x3e9aceb7	0.30235836
29	0xbdd10caf	-0.10207497
30	0xbc2622ce	-0.010140134
31	0xbd502623	-0.05081762
32	0xbe07d0f7	-0.13263308
33	0xbd80560e	-0.06266414
34	0x3da0d19c	0.0785248
35	0x3e218e85	0.15777023
36	0xbe2bafeb	-0.16766326
37	0x3dd7c52c	0.105356544
38	0x3ee624c5	0.44949928
39	0x3e451e96	0.19249949
40	0x3e45ea74	0.19327718
41	0x3e4d29e9	0.20035519
42	0x3ea73c9b	0.32663426
43	0xbe2bbb33	-0.1677063
44	0xbc145899	-0.009054326
45	0xbe294f8f	-0.16534255
46	0x3e21d8ed	0.15805407
47	0xbe183c4c	-0.14866751
48	0xbe222f9b	-0.15838473
49	0xbdae9cd8	-0.08526009
50	0xbe189e1a	-0.14904061
51	0x3e067ac2	0.13132766
52	0xbd15e13a	-0.036591746
53	0x3ea706c4	0.3262235
54	0x3dab449a	0.08362694
55	0xbe2ce200	-0.16883087
56	0xbd9a933b	-0.07547613
57	0xbe1bd143	-0.15216546
58	0xbe2d23df	-0.16908215
59	0x3d347762	0.044059165
60	0xbb1b4448	-0.0023691822
61	0xbd4fea8a	-0.050760783
62	0xbe2313a4	-0.15925461
63	0xbe1c6512	-0.1527293
64	0xbdef8e79	-0.116970964
65	0x3d4e6a34	0.050394252
66	0xbe25f8df	-0.16208218
67	0xbe2a4bce	-0.1663048
68	0xbe1e3f6b	-0.1545388
69	0x3e05ef76	0.13079628
70	0x3f12c513	0.5733196
71	0xbde32087	-0.110901885
72	0x3e89c5a3	0.26908597
73	0xbe2274b9	-0.15864839
74	0xbe1974be	-0.1498594
75	0xbc3352cc	-0.010945033
76	0xbe129d58	-0.14317834
77	0xbe21f1ef	-0.15814947
78	0xbe26c63f	-0.16286562
79	0xbe2b8661	-0.1675048
80	0xbbbf1d6d	-0.0058323652
81	0x3e80537c	0.25063694
82	0xbe1da9ad	-0.15396757
83	0x3bb4fbb8	0.0055231713
84	0xbe260c7f	-0.16215704
85	0xbd9d2a4b	-0.07674082
86	0xbe1bef3d	-0.15227981
87	0xbe1ba57c	-0.15199846
88	0xbe26a031	-0.16272046
89	0xbcce1e87	-0.025161041
90	0x3c9efda8	0.019408062
91	0xbe283904	-0.16428
92	0xbd206dab	-0.039167088
93	0xbe06401d	-0.13110395
94	0xbe286549	-0.16444887
95	0xbe187ee2	-0.14892152
96	0xbe1c8603	-0.15285496
97	0xbe2d0a81	-0.16898538
98	0xbe2a311b	-0.16620295
99	0x3c8fe038	0.01756297
100	0x3c70fc76	0.014708629
101	0xba57d908	-0.00082339393
102	0x3ea5f857	0.3241603
103	0x3e6668e3	0.22500949
104	0xbdaf1e92	-0.08550753
105	0x3e7ef24e	0.2489712
106	0xbe25473b	-0.16140454
107	0xbe13c45e	-0.14430377
108	0xbe0327ad	-0.12808104
109	0xbe1127f5	-0.14175399
110	0xbd0de3cd	-0.034641076
111	0xbe01fa6a	-0.12693182
112	0x3e864123	0.2622157
113	0x3e084127	0.13306104
114	0xbe23d1c9	-0.15997995
115	0x3e85f9e7	0.26167223
116	0xbe2a1e74	-0.1661318
117	0x3c764b7f	0.015032648
118	0xbd61b6da	-0.05510602
119	0xbde687c9	-0.11256368
120	0xbdbadee1	-0.09124542
121	0xbdaccc39	-0.0843739
122	0xbdb31778	-0.08744711
123	0xbdc03181	-0.09384442
124	0x3ea2d4c0	0.3180294
125	0xbe2539e4	-0.16135365
126	0x3e47dc96	0.1951774
127	0xbe20302a	-0.15643373

conv_blocks.0.2.running_var f4 [128]
0	0x3b807dd1	0.0039212485
1	0x36fa8a1d	7.466659e-06
2	0x398154c8	0.00024667964
3	0x3b20c0db	0.0024529013
4	0x35e2ae24	1.6888994e-06
5	0x38b53fd9	8.642645e-05
6	0x39598236	0.0002074324
7	0x3679e797	3.7238694e-06
8	0x3ab5bf81	0.0013866277
9	0x3b82a748	0.0039872266
10	0x389628f9	7.160189e-05
11	0x36da2012	6.5006398e-06
12	0x35d761f6	1.6047259e-06
13	0x394b3520	0.00019379379
14	0x363a2e35	2.7743056e-06
15	0x37a3a7ba	1.9509218e-05
16	0x377646e0	1.46792445e-05
17	0x3a8d5f49	0.0010785843
18	0x37fb1be8	2.9934527e-05
19	0x36bab3a1	5.5641435e-06
20	0x3a22c53b	0.0006209199
21	0x35a48ae4	1.2259375e-06
22	0x3a280388	0.00064092176
23	0x3a49fac5	0.0007704909
24	0x3a8da3a7	0.0010806218
25	0x3a791a67	0.00095025304
26	0x3aba7015	0.0014224077
27	0x3a4d8fe2	0.00078415696
28	0x3ad51d1b	0.0016259284
29	0x39a7dd6b	0.0003201769
30	0x3a3628d2	0.0006948832
31	0x3b66c47a	0.0035212324
32	0x37fbbbb7	3.0008943e-05
33	0x39543666	0.0002023816
34	0x3a8426b8	0.001008234
35	0x3ac1e7ac	0.0014793775
36	0x3635eb77	2.710816e-06
37	0x3b09bc2b	0.0021016698
38	0x3b0ee1cc	0.0021802066
39	0x3a97a037	0.0011568133
40	0x3aa6fd0f	0.0012740212
41	0x3af1e4a5	0.0018454982
42	0x3ab86771	0.0014068914
43	0x369ce664	4.6759833e-06
44	0x39a7ed24	0.00032029406
45	0x37e3d2c1	2.7158649e-05
46	0x3be17b4a	0.0068811523
47	0x3712414c	8.717481e-06
48	0x36839ee6	3.9226024e-06
49	0x3a7022bf	0.0009160451
50	0x3720d551	9.58641e-06
51	0x3aaada15	0.0013034964
52	0x3a1c7188	0.0005967845
53	0x3af89761	0.0018966013
54	0x3a871057	0.0010304552
55	0x33ce2fff	9.601353e-08
56	0x3a066e71	0.00051281514
57	0x389b1d03	7.39638e-05
58	0x35d39033	1.5762693e-06
59	0x3ab756bf	0.0013987644
60	0x3a44d4ca	0.00075085147
61	0x3a42d04e	0.00074315525
62	0x35a2debd	1.2134766e-06
63	0x364632d6	2.953389e-06
64	0x38b484a2	8.6077736e-05
65	0x3a30e592	0.0006748076
66	0x38f0dabf	0.000114848364
67	0x36932330	4.3850378e-06
68	0x391c97c3	0.00014933855
69	0x3aa371ad	0.0012469791
70	0x3b21111b	0.0024576846
71	0x3a2739c8	0.00063791545
72	0x3ad68724	0.0016367179
73	0x35df9a6b	1.6659736e-06
74	0x37239ee3	9.752551e-06
75	0x3a36bb8b	0.0006970695
76	0x38e18bce	0.00010754877
77	0x38c8ffa1	9.584358e-05
78	0x38ee0119	0.00011348929
79	0x340cd293	1.3115122e-07
80	0x39c31c92	0.00037214585
81	0x3abcd1ee	0.0014405826
82	0x366965eb	3.477903e-06
83	0x3af1624f	0.0018416139
84	0x35e045b8	1.6709591e-06
85	0x395576b5	0.00020357485
86	0x37b08f68	2.1047614e-05
87	0x36db4f38	6.535931e-06
88	0x371d351b	9.370294e-06
89	0x3a5bba41	0.0008381941
90	0x39ea3a53	0.00044675413
91	0x35a568ef	1.2323998e-06
92	0x3b7a742a	0.0038216212
93	0x37d9c7ad	2.5961397e-05
94	0x35ddc9d7	1.6524526e-06
95	0x36b99f9f	5.532012e-06
96	0x372a371d	1.0145622e-05
97	0x350d4267	5.262322e-07
98	0x3544d45d	7.332472e-07
99	0x3a5a5abc	0.00083295605
100	0x39ce1629	0.00039307892
101	0x3a5e586f	0.00084818056
102	0x3b12a825	0.0022378054
103	0x3a97b2e3	0.0011573698
104	0x3a5f6c49	0.00085229106
105	0x3ab08aa3	0.0013469051
106	0x369fa364	4.7575904e-06
107	0x393dd3d1	0.00018103352
108	0x3a4c1b17	0.0007786019
109	0x397db656	0.00024195886
110	0x3a814562	0.0009862597
111	0x3903d189	0.00012571191
112	0x3ab008d1	0.0013430362
113	0x3add0403	0.0016862157
114	0x365d8bd6	3.3012961e-06
115	0x3ae3c91b	0.001737866
116	0x35889d58	1.0178583e-06
117	0x3b0ef024	0.0021810615
118	0x399c99c0	0.0002986919
119	0x390366df	0.00012531456
120	0x395780c4	0.00020551967
121	0x3b323959	0.0027194826
122	0x399fe57f	0.0003049783
123	0x3b100f9a	0.0021981956
124	0x3b117fee	0.0022201496
125	0x367f0cc8	3.80054e-06
126	0x3ad7cd0a	0.0016464305
127	0x39876087	0.00025821125

conv_blocks.1.0.weight f4 [128, 128, 3]
0	0x39c5bbd3	0.00037714708
1	0x3c13a05c	0.009010401
2	0xbcec0721	-0.028811993
3	0xbcff4185	-0.031159172
4	0xbc452f44	-0.012035195
5	0x39b3f3ea	0.0003432327
6	0x3d11d2ad	0.035601307
7	0xbc342bdf	-0.010996788
8	0xbcbad4ed	-0.022806609
9	0xbd823126	-0.063570306
10	0x3c50cee0	0.012744635
11	0xbcb948d1	-0.02261773
12	0x3a0ecc6c	0.00054473314
13	0x3cad715e	0.021172222
14	0xbd23cfd5	-0.039993126
15	0xbcf609ea	-0.030034024
16	0x3bb74cfc	0.005593894
17	0xbba1c60f	-0.0049369405
18	0x3c1f5fb5	0.009727408
19	0xbd711b26	-0.05886378
20	0x3c175f17	0.00923898
21	0x3d0d26ff	0.034461018
22	0x3c9580a7	0.018249823
23	0xbd19b769	-0.03752843
24	0x3ceaf08a	0.028679151
25	0xbcb0c9dd	-0.02158063
26	0x3d420aac	0.04737346
27	0x3ce9ada0	0.028525174
28	0xbb381870	-0.0028090738
29	0x3bcac408	0.0061879195
30	0xbcaa9081	-0.020820858
31	0x3bd63b54	0.006537834
32	0xbcb54698	-0.022128388
33	0xbcd1675d	-0.025561983
34	0x3c99e409	0.018785493
35	0xbd6e0225	-0.058107514
36	0x3d8a85cf	0.06763803
37	0xbcb00549	-0.021486895
38	0x3d3455c2	0.044027098
39	0x3d32402d	0.043518234
40	0xbc962ca8	-0.01833184
41	0x3af1f028	0.0018458413
42	0x3c62ce7e	0.013843177
43	0x3bed5af5	0.007243509
44	0xbcc901da	-0.024537016
45	0x3bf36bc5	0.0074286186
46	0xbc866d36	-0.016409498
47	0xbc8efd67	-0.017454816
48	0xbd6c9560	-0.057759643
49	0xbb2d7311	-0.002646629
50	0xbd1bb922	-0.038018353
51	0x3b8bdeb5	0.004268492
52	0x3b874df8	0.0041291676
53	0xbc07c987	-0.008287794
54	0xbda2867a	-0.079358056
55	0x3c801327	0.015634133
56	0x3c4e8087	0.0126038855
57	0x3ca90106	0.02063037
58	0xbcc2837f	-0.023744343
59	0x3a87018b	0.0010300142
60	0xbd717c32	-0.058956333
61	0xbc397ead	-0.011321706
62	0x3bdb2cc1	0.0066886847
63	0x3d3e33d1	0.046436135
64	0xbce0673d	-0.027392978
65	0x3b966f2c	0.0045908894
66	0x3c1b01c3	0.009460869
67	0xbd00c497	-0.031437483
68	0xbcd4ad6b	-0.025961598
69	0x3a44fe52	0.00075147033
70	0x3c9eac5a	0.019369293
71	0xbd05969b	-0.03261433
72	0x3ceed38d	0.02915361
73	0xbcee3b27	-0.02908094
74	0x3d6f2102	0.058381088
75	0xbcfa7f9e	-0.03057843
76	0x3c1d9935	0.009619047
77	0xbcc6d856	-0.024273079
78	0xbcfa2e02	-0.030539516
79	0x3cafe39a	0.021470834
80	0xbc32e20a	-0.01091815
81	0x3cc986f5	0.024600485
82	0x3ca2ce47	0.019873751
83	0x3ccb03d8	0.024782106
84	0x3d28ad2b	0.04118077
85	0xbb51a5d3	-0.0031989708
86	0x3d897a08	0.06712729
87	0x3bbed7ae	0.005824051
88	0xbd1dd1fc	-0.038530335
89	0x3cdf27f2	0.027240727
90	0xbd057f9f	-0.032592412
91	0xb9dc1999	-0.00041980742
92	0xbd40a1fe	-0.047029488
93	0xbd941c1f	-0.07231926
94	0x3b2db55a	0.00265058
95	0x3ceb7972	0.028744433
96	0x3bae1bcf	0.0053133736
97	0xbb7515f1	-0.0037397111
98	0xbc9ed62c	-0.019389234
99	0xbd6810fa	-0.056656815
100	0x3c80588d	0.015667224
101	0xbc7d58e2	-0.015463086
102	0xbcb7dd8f	-0.022444515
103	0x3c8f073e	0.017459508
104	0xbdad05ef	-0.08448397
105	0xbd0e7593	-0.034780096
106	0x3b531404	0.0032207975
107	0x3cfac8ef	0.03061339
108	0xbdb79af9	-0.089651056
109	0x3cc2b9d4	0.02377025
110	0xbc049216	-0.00809147
111	0x3d45c6bb	0.048285227
112	0x39beb30b	0.0003637302
113	0xbc380e0b	-0.011233817
114	0xbc361029	-0.011112251
115	0xba1b58cf	-0.0005926014
116	0xbd24403d	-0.040100325
117	0x3d81c4e0	0.06336379
118	0x3cc823d0	0.02443114
119	0xbbabd2fa	-0.005243656
120	0xbd2404a7	-0.0400435
121	0x3bb476b4	0.0055073146
122	0xbc6c9740	-0.014440358
123	0xbcd24415	-0.02566723
124	0xbbb88aa9	-0.005631764
125	0xbccf3257	-0.025292559
126	0xbd905ccb	-0.07048949
127	0xbb1ecccc	-0.0024230955
128	0xbb9b8b7f	-0.004746854
129	0x3d36b022	0.044601567
130	0xbd705487	-0.05867436
131	0x3c2aea30	0.010431811
132	0x3d01021a	0.031496145
133	0x3b29914c	0.0025873957
134	0xbcc8afd4	-0.024497904
135	0xbd40fe76	-0.047117673
136	0xbcdc4658	-0.026889011
137	0xbb94df67	-0.004543233
138	0x3d1bdc4d	0.038051892
139	0xb81c0280	-3.7195627e-05
140	0x3ba099d5	0.0049011507
141	0x3a65e649	0.0008769972
142	0x3c9fd303	0.019509798
143	0xbd0b8b77	-0.03406855
144	0xbd3b7a31	-0.045770828
145	0x3ca6a380	0.020341635
146	0xbd9ae102	-0.07562448
147	0xbcaf61e1	-0.021408977
148	0xbbe1f924	-0.006896155
149	0xbc088420	-0.008332282
150	0x3d2f3b22	0.042781003
151	0xbb43b018	-0.0029859599
152	0x3d18078f	0.037116583
153	0x3cb48110	0.022034198
154	0xbad1689f	-0.0015976614
155	0x3d3e619e	0.046479814
156	0xbd082c77	-0.03324553
157	0xbc9e8be5	-0.019353816
158	0xbcc94a0b	-0.02457144
159	0xbcf77e29	-0.030211525
160	0x3c8f8546	0.017519604
161	0x3c3571f3	0.011074531
162	0xbcbea302	-0.023271088
163	0x3ba730ba	0.005102244
164	0xbd3ba7f0	-0.045814455
165	0x3d217e46	0.039427064
166	0xbd09c975	-0.03363939
167	0x3da51aa4	0.08061722
168	0x3cee2ac9	0.029073136
169	0xbd738910	-0.059456885
170	0x3d37ee97	0.04490527
171	0xbcf617ca	-0.03004064
172	0x3c6d9356	0.01450046
173	0xbd15bcb3	-0.03655691
174	0xbd1cbadc	-0.03826414
175	0xbd77e356	-0.06051954
176	0x3d51d534	0.051228717
177	0xbd209abd	-0.03921007
178	0x3bddaded	0.0067651183
179	0x3c0ad2aa	0.008473078
180	0xbc521f46	-0.012824839
181	0xbc13c20e	-0.009018434
182	0x3b5d028b	0.003372344
183	0x3d021c69	0.031765375
184	0xbc7a4dda	-0.01527735
185	0x3bbb1ad9	0.0057099876
186	0xbc37f922	-0.0112288315
187	0x3cbf6e9a	0.023368169
188	0x3ae414b9	0.0017401195
189	0x3d97452a	0.07386239
190	0x3bacd667	0.005274582
191	0x3d653d7d	0.055966843
192	0x3d29ebd7	0.04148468
193	0x3aee44e1	0.0018178486
194	0xbc86d07d	-0.016456837
195	0x3c5494a5	0.012974893
196	0x3c734424	0.014847789
197	0xbd4bff73	-0.049804162
198	0x3bca18b3	0.006167495
199	0xbcbc015d	-0.022949869
200	0x3c85a891	0.01631573
201	0x3d367f69	0.0445551
202	0x3ceae15c	0.028671913
203	0xbc9f5c1e	-0.019453105
204	0xbdb23117	-0.087007694
205	0x3c0c36f7	0.0085580265
206	0xbd352bc6	-0.0442312
207	0x3d3704c2	0.04468227
208	0xbb8be8db	-0.004269702
209	0xbd25daa4	-0.040491715
210	0x3d9ddf33	0.077085875
211	0xbd01304c	-0.0315402
212	0x3d01fc53	0.031734776
213	0x3c84d112	0.016212974
214	0xbc8f0e62	-0.017462913
215	0x3d1202ce	0.035647206
216	0xbd1cee75	-0.038313348
217	0xbb6bc9b5	-0.003597838
218	0x3cef5a12	0.029217754
219	0xbd95d968	-0.073168576
220	0x3be74437	0.0070576924
221	0xbd529841	-0.051414732
222	0x3d3918a2	0.045189507
223	0x3cc06e56	0.023490112
224	0x3c91f0d2	0.017815027
225	0x3c4aef1e	0.012386112
226	0x3cbfc24e	0.023408081
227	0xbccb6c5e	-0.024831947
228	0xbc030c16	-0.007998487
229	0xbc05c807	-0.008165366
230	0x3b5460bd	0.0032406293
231	0x3c8dc5e2	0.017306272
232	0xbb8ccfe6	-0.0042972444
233	0x3a8a5ddd	0.0010556538
234	0x3c265190	0.010151282
235	0xbd92dcf6	-0.07171051
236	0x3bc92fde	0.0061397394
237	0xbd53c11d	-0.05169784
238	0x3c8733a8	0.016504124
239	0xbdaddb64	-0.08489111
240	0x3c655c8a	0.013999114
241	0xbbb724b6	-0.005589093
242	0xbce76cd5	-0.028250137
243	0xbc237097	-0.009975574
244	0xbd11efaa	-0.035628952
245	0x3cbf4f68	0.023353294
246	0xbd161ebe	-0.03665041
247	0x3aa12c10	0.0012296457
248	0xbbd3f686	-0.006468597
249	0xbd38a6bb	-0.04508088
250	0x3b499ccb	0.0030763622
251	0xbd19717c	-0.037461743
252	0xbc1d8e32	-0.009616422
253	0x3c8012c2	0.015633944
254	0xbc9dc1bf	-0.019257424
255	0x3ac2f046	0.0014872632

conv_blocks.1.0.bias f4 [128]
0	0xbd5588ed	-0.052132536
1	0xbd1e9bbb	-0.038722735
2	0xbe18bbd2	-0.14915398
3	0xbdc56b88	-0.096396506
4	0xbd214d54	-0.039380386
5	0xbe22a514	-0.15883285
6	0xbbfb1ba6	-0.007663208
7	0xbe1b51ba	-0.15167895
8	0xbde893e0	-0.1135633
9	0xbe0f951e	-0.14021727
10	0xbcdb885e	-0.026798423
11	0xbd640e3e	-0.055677645
12	0xbdf0c81c	-0.11756918
13	0xbd445706	-0.047934555
14	0xbdfab34f	-0.12241232
15	0xbd8cbc1e	-0.06871818
16	0xbd08328f	-0.03325134
17	0xbd24dcf0	-0.040249765
18	0xbd0e0ba8	-0.034679085
19	0xbe0a9a4a	-0.13535419
20	0xbe03f7d4	-0.12887508
21	0x3c4679d4	0.012114007
22	0xbdcf2741	-0.10114909
23	0xbe4285ac	-0.18996304
24	0x3d09b21e	0.03361713
25	0xbdf1b088	-0.11801249
26	0xbde6e093	-0.11273303
27	0x3cc2472c	0.023715578
28	0xbde64d2d	-0.11245189
29	0xbe127151	-0.1430104
30	0x3b62406e	0.0034523266
31	0xbd7954d7	-0.060871925
32	0xbccacafb	-0.024754992
33	0xbc8fff7f	-0.017577885
34	0x3c07efb9	0.0082969
35	0xbcad8d4e	-0.021185543
36	0xbe56ff54	-0.20995837
37	0xbd967c42	-0.07347919
38	0xbd77f7f3	-0.060539197
39	0xbdec0eb3	-0.11526241
40	0xbe1a6913	-0.15079145
41	0xbdac3902	-0.08409311
42	0xbd64e922	-0.055886395
43	0xbe1241a6	-0.14282855
44	0xbcac811c	-0.021057658
45	0xbe11ff93	-0.1425765
46	0xbe100e90	-0.14068055
47	0xbe10c7f6	-0.14138779
48	0xbdd35ab4	-0.103200346
49	0xbdb4a1ca	-0.08819921
50	0xbdb92d8d	-0.09041891
51	0xbbef1c91	-0.0072971066
52	0xbe2f97b6	-0.17147717
53	0x3b3d4cf5	0.0028884981
54	0xbd80973c	-0.06278846
55	0xbd23ccb9	-0.03999016
56	0xbdfa03e2	-0.12207772
57	0xbdda03b3	-0.10645237
58	0xbd156a95	-0.036478598
59	0xbda38987	-0.07985216
60	0xbd795b2e	-0.06087797
61	0xbdb51dce	-0.088435754
62	0xbcd06167	-0.02543707
63	0xbc2d6efa	-0.010585541
64	0xbcf25290	-0.029580384
65	0xbd87a450	-0.06623137
66	0xbe078230	-0.13233256
67	0xbdc0e434	-0.09418526
68	0xbd2723e9	-0.04080573
69	0xbdc5c818	-0.096573055
70	0xbd4daa1f	-0.05021107
71	0xbde68c70	-0.11257255
72	0xbdeeb812	-0.116562024
73	0xbe013b8b	-0.1262037
74	0xbe1985e2	-0.14992478
75	0xbe0dfa42	-0.13864997
76	0xbde411ba	-0.111361936
77	0xbc17d1ff	-0.009266376
78	0xbddba709	-0.10725219
79	0xbd5355b4	-0.051595405
80	0xbd52069f	-0.051275846
81	0xbe2033d5	-0.15644772
82	0xbe18398f	-0.14865707
83	0x3bbfae3a	0.005849627
84	0xbbf14aa2	-0.0073636333
85	0x3d22ceb9	0.039747927
86	0xbdaefbf6	-0.085441515
87	0xbdba37fb	-0.09092709
88	0xbd7d551f	-0.061848756
89	0xbe0a4187	-0.13501559
90	0xbdac30c1	-0.084077366
91	0xbdd54b5c	-0.10414764
92	0xbe0d1eff	-0.13781355
93	0xbdff6f1f	-0.124723665
94	0xbdc2c2c8	-0.09509808
95	0xbc81279a	-0.015765954
96	0x3c896bf1	0.016775103
97	0xbe1b23d0	-0.1515038
98	0xbcc36e15	-0.023856202
99	0xbe284558	-0.16432703
100	0xbdc49d63	-0.09600332
101	0xbe2e23e4	-0.17005879
102	0xbde93de7	-0.1138876
103	0xbe04da42	-0.12973884
104	0xbdc55a91	-0.09636415
105	0xbe193380	-0.14961052
106	0xbde1458d	-0.10999594
107	0xbe08f4de	-0.1337466
108	0xbd22c49d	-0.039738286
109	0xbd6d7fd0	-0.05798322
110	0xbe0a1c42	-0.13487342
111	0xbd5b0280	-0.05346918
112	0xbdaada16	-0.08342378
113	0xbd18fd80	-0.03735113
114	0xbe099047	-0.13433944
115	0xbd251711	-0.0403052
116	0xbccb07db	-0.02478402
117	0xbdf1b624	-0.11802319
118	0x3c7cee4f	0.015437677
119	0xbdb39194	-0.08768001
120	0xbd8b682c	-0.068069786
121	0xbdab352d	-0.08359752
122	0xbda7d071	-0.08194054
123	0xbda03e16	-0.07824342
124	0x3c63b804	0.013898853
125	0xbdb84e6b	-0.08999332
126	0xbd47edcb	-0.04881076
127	0xbda601b2	-0.08105792

conv_blocks.1.2.weight f4 [128]
0	0x3f4dfa1c	0.8045976
1	0x3f668964	0.9005339
2	0x3f8af177	1.0854939
3	0x3f72106b	0.945563
4	0x3f3dbb41	0.7411385
5	0x3f7bc9ab	0.98354596
6	0x3f55f641	0.8357888
7	0x3f8a31ca	1.0796444
8	0x3f956bd8	1.1673536
9	0x3f91abfc	1.138061
10	0x3f90ca63	1.1311764
11	0x3f5d9d29	0.8656793
12	0x3f87e34b	1.0616239
13	0x3f65f315	0.8982404
14	0x3f8eb470	1.1148815
15	0x3f865825	1.049565
16	0x3f5a9c2b	0.85394543
17	0x3f3f5c2e	0.7475003
18	0x3f52f7a2	0.8240911
19	0x3f6b732e	0.91972625
20	0x3f83db74	1.0301347
21	0x3f3d7f0c	0.74021983
22	0x3f422e53	0.75851935
23	0x3f8e30c2	1.110863
24	0x3f412e51	0.754613
25	0x3f857d72	1.0428908
26	0x3f81a09c	1.0127139
27	0x3f36a78e	0.7134942
28	0x3f86bf97	1.0527219
29	0x3f8e75bc	1.112968
30	0x3f6294a1	0.8850804
31	0x3f8a93cd	1.0826355
32	0x3f54a15f	0.8305873
33	0x3f7d662f	0.98984045
34	0x3f3b5671	0.73178774
35	0x3f4cd751	0.80016047
36	0x3f8a4ab7	1.0804051
37	0x3f703c40	0.93841934
38	0x3f7978a2	0.97449696
39	0x3f64c8bc	0.89368796
40	0x3f72e6f2	0.94883645
41	0x3f82c5cb	1.0216612
42	0x3f486981	0.78285986
43	0x3f8c4186	1.0957496
44	0x3f4dad66	0.8034271
45	0x3f88f37e	1.0699308
46	0x3f9a23d7	1.2042187
47	0x3f71dbf3	0.9447624
48	0x3f8381b1	1.0273954
49	0x3f8c1b6f	1.0945872
50	0x3f4e28cd	0.8053101
51	0x3f41c617	0.75692886
52	0x3f859eb1	1.0439054
53	0x3f32658d	0.69686204
54	0x3f81938a	1.012315
55	0x3f6e46ee	0.9307698
56	0x3f8c8522	1.0978129
57	0x3f65a22e	0.8970059
58	0x3f444245	0.7666362
59	0x3f528762	0.8223783
60	0x3f801c1b	1.0008577
61	0x3f8cc5e9	1.0997897
62	0x3f55a38b	0.8345267
63	0x3f63641b	0.88824624
64	0x3f65fc9d	0.8983858
65	0x3f81956b	1.0123724
66	0x3f8be09e	1.0927923
67	0x3f912028	1.1337938
68	0x3f781140	0.9690132
69	0x3f73e1ce	0.95266426
70	0x3f5248b9	0.82142216
71	0x3f7ff85e	0.99988353
72	0x3f6a37ed	0.91491586
73	0x3f67d614	0.9056103
74	0x3f70624c	0.9389999
75	0x3f955893	1.1667656
76	0x3f858d94	1.0433831
77	0x3f555d2e	0.83345306
78	0x3f8365af	1.0265406
79	0x3f4be48f	0.7964563
80	0x3f3b81e5	0.7324508
81	0x3f8441db	1.0332597
82	0x3f5d5b65	0.8646758
83	0x3f4e0d9c	0.80489516
84	0x3f65ab8e	0.89714897
85	0x3f3818d7	0.719129
86	0x3f7541fd	0.95803815
87	0x3f64873b	0.89268845
88	0x3f6eb3cf	0.93243116
89	0x3f8dc191	1.1074697
90	0x3f6d4268	0.9267945
91	0x3f4afa75	0.7928842
92	0x3f8dcb79	1.107772
93	0x3f8480c6	1.0351799
94	0x3f778dd0	0.96700764
95	0x3f59f9d7	0.8514685
96	0x3f3f32d1	0.74686915
97	0x3f6eef4a	0.93333876
98	0x3f6ae7a7	0.91759723
99	0x3f6fd510	0.9368448
100	0x3f74deaf	0.9565229
101	0x3f86397a	1.048629
102	0x3f7145fc	0.9424741
103	0x3f4dfd96	0.80465066
104	0x3f896bdb	1.073604
105	0x3f622f3e	0.88353336
106	0x3f765346	0.96220815
107	0x3f678c9d	0.90448934
108	0x3f8f7834	1.1208558
109	0x3f71b6a3	0.94419307
110	0x3f6c217d	0.922386
111	0x3f5b3caa	0.8563944
112	0x3f556fca	0.833737
113	0x3f75a192	0.9594966
114	0x3f669315	0.9006818
115	0x3f48899b	0.7833497
116	0x3f4a5c8a	0.79047453
117	0x3f80fff3	1.007811
118	0x3f563f72	0.8369056
119	0x3f6d1241	0.9260598
120	0x3f50c874	0.8155587
121	0x3f8d17eb	1.1022924
122	0x3f8ba7d9	1.0910598
123	0x3f854fb2	1.0414946
124	0x3f47ce2a	0.78048956
125	0x3f70de6c	0.9408939
126	0x3f629e36	0.8852266
127	0x3f91aa24	1.1380048
